=============================
gpt1 vs gpt2 vs xlnet vs real
=============================
_________________________________________________________________
Layer (type)                 Output Shape              Param #   
=================================================================
embedding_1 (Embedding)      (None, 100, 100)          5000000   
_________________________________________________________________
spatial_dropout1d_1 (Spatial (None, 100, 100)          0         
_________________________________________________________________
lstm_1 (LSTM)                (None, 100)               80400     
_________________________________________________________________
dense_1 (Dense)              (None, 4)                 404       
=================================================================
Total params: 5,080,804
Trainable params: 5,080,804
Non-trainable params: 0
_________________________________________________________________
val_acc: 0.7994


=============================
gpt1 vs gpt2
=============================
_________________________________________________________________
Layer (type)                 Output Shape              Param #   
=================================================================
embedding_1 (Embedding)      (None, 100, 100)          5000000   
_________________________________________________________________
spatial_dropout1d_1 (Spatial (None, 100, 100)          0         
_________________________________________________________________
lstm_1 (LSTM)                (None, 100)               80400     
_________________________________________________________________
dense_1 (Dense)              (None, 1)                 101       
=================================================================
Total params: 5,080,501
Trainable params: 5,080,501
Non-trainable params: 0
_________________________________________________________________
None
Train on 3200 samples, validate on 800 samples

val_acc: 0.8512

=============================
gpt1 vs xlnet
=============================

val_acc: 0.9275

=============================
…
